…
2023-10-21 23:12:24.836792: I tensorflow/compiler/xla/service/service.cc:176]   StreamExecutor device (0): Host, Default Version
2023-10-21 23:12:24.838667: I tensorflow/core/common_runtime/gpu/gpu_device.cc:1102] Device interconnect StreamExecutor with strength 1 edge matrix:
2023-10-21 23:12:24.838685: I tensorflow/core/common_runtime/gpu/gpu_device.cc:1108]      
Model: "CNN"
_________________________________________________________________
Layer (type)                 Output Shape              Param #   
=================================================================
conv2d (Conv2D)              (None, 63, 63, 48)        624       
_________________________________________________________________
batch_normalization (BatchNo (None, 63, 63, 48)        192       
_________________________________________________________________
conv2d_1 (Conv2D)            (None, 62, 62, 64)        12352     
_________________________________________________________________
batch_normalization_1 (Batch (None, 62, 62, 64)        256       
_________________________________________________________________
conv2d_2 (Conv2D)            (None, 61, 61, 128)       32896     
_________________________________________________________________
batch_normalization_2 (Batch (None, 61, 61, 128)       512       
_________________________________________________________________
max_pooling2d (MaxPooling2D) (None, 30, 30, 128)       0         
_________________________________________________________________
dropout (Dropout)            (None, 30, 30, 128)       0         
_________________________________________________________________
flatten (Flatten)            (None, 115200)            0         
_________________________________________________________________
dense (Dense)                (None, 128)               14745728  
_________________________________________________________________
batch_normalization_3 (Batch (None, 128)               512       
_________________________________________________________________
dropout_1 (Dropout)          (None, 128)               0         
_________________________________________________________________
dense_1 (Dense)              (None, 64)                8256      
_________________________________________________________________
batch_normalization_4 (Batch (None, 64)                256       
_________________________________________________________________
dropout_2 (Dropout)          (None, 64)                0         
_________________________________________________________________
dense_2 (Dense)              (None, 10)                650       
=================================================================
Total params: 14,802,234
Trainable params: 14,801,370
Non-trainable params: 864
_________________________________________________________________
Epoch 1/200
44/44 - 17s - loss: 3.2300 - accuracy: 0.1134 - val_loss: 2.3257 - val_accuracy: 0.1056
Epoch 2/200
44/44 - 17s - loss: 2.7134 - accuracy: 0.1884 - val_loss: 2.3881 - val_accuracy: 0.1056
…
